…
  0%|          | 200/79726 [00:01<09:18, 142.27it/s]
There are 102150 total images.

There are 17939 training images.
There are 10 total training categories.
There are 4485 validation images.
There are 79726 test images.
2022-02-14 01:51:17.501224: I tensorflow/core/platform/cpu_feature_guard.cc:142] Your CPU supports instructions that this TensorFlow binary was not compiled to use: AVX2
Model: "sequential"
_________________________________________________________________
Layer (type)                 Output Shape              Param #   
=================================================================
conv2d (Conv2D)              (None, 62, 62, 64)        640       
_________________________________________________________________
batch_normalization (BatchNo (None, 62, 62, 64)        256       
_________________________________________________________________
max_pooling2d (MaxPooling2D) (None, 31, 31, 64)        0         
_________________________________________________________________
dropout (Dropout)            (None, 31, 31, 64)        0         
_________________________________________________________________
conv2d_1 (Conv2D)            (None, 31, 31, 128)       73856     
_________________________________________________________________
batch_normalization_1 (Batch (None, 31, 31, 128)       512       
_________________________________________________________________
max_pooling2d_1 (MaxPooling2 (None, 16, 16, 128)       0         
_________________________________________________________________
dropout_1 (Dropout)          (None, 16, 16, 128)       0         
_________________________________________________________________
conv2d_2 (Conv2D)            (None, 16, 16, 256)       295168    
_________________________________________________________________
batch_normalization_2 (Batch (None, 16, 16, 256)       1024      
_________________________________________________________________
max_pooling2d_2 (MaxPooling2 (None, 8, 8, 256)         0         
_________________________________________________________________
dropout_2 (Dropout)          (None, 8, 8, 256)         0         
_________________________________________________________________
flatten (Flatten)            (None, 16384)             0         
_________________________________________________________________
dense (Dense)                (None, 512)               8389120   
_________________________________________________________________
batch_normalization_3 (Batch (None, 512)               2048      
_________________________________________________________________
dropout_3 (Dropout)          (None, 512)               0         
_________________________________________________________________
dense_1 (Dense)              (None, 128)               65664     
_________________________________________________________________
dropout_4 (Dropout)          (None, 128)               0         
_________________________________________________________________
dense_2 (Dense)              (None, 10)                1290      
=================================================================
Total params: 8,829,578
Trainable params: 8,827,658
Non-trainable params: 1,920
_________________________________________________________________
Train on 17939 samples, validate on 4485 samples
Epoch 1/7

   40/17939 [..............................] - ETA: 1:59:16 - loss: 3.9581 - accuracy: 0.0500
   80/17939 [..............................] - ETA: 1:03:26 - loss: 3.7103 - accuracy: 0.0625
…
